FaderatedLearningStudy/Faderated/received_model.pt (torch, 272840 bytes, 4 tensors)

conv.weight f4 [10, 1, 3, 3]
000000 16 2b 1a be a3 3a 90 be e8 c2 2c be 6e ea 5f be
       -0.15055498 -0.28169736 -0.16871226 -0.21866772
000010 66 d3 7f be 10 77 8d 3d ec aa 89 be f0 31 02 be
       -0.24982986 0.06907475 -0.26888216 -0.12714362
000020 c0 cd cc 3c ab 3b 3d 3d c7 6e 34 bc 21 63 9f be
       0.025000453 0.046199482 -0.0110127395 -0.31130317
000030 a6 6d 7f 3e 6a 5d 2a 3e fd 2e c5 bd f1 d9 b2 3d
       0.24944171 0.16637197 -0.09628103 0.08732975
000040 0b 3f 52 be 8a eb 34 3e 57 63 0b be dd 58 86 3e
       -0.20531861 0.17667976 -0.13612114 0.26239672
000050 14 d5 78 be df eb aa bd dc 69 a9 bc 5b 66 7d 3e
       -0.24300033 -0.0834577 -0.02068036 0.24746077
000060 c8 a9 3b 3d 0e 32 89 3d 23 85 91 be 1c 63 ab bd
       0.045816213 0.06699 -0.28421888 -0.08368513
000070 42 dd b8 3d ef 03 d2 3d f0 ca c7 bd e0 28 b3 bd
       0.090265766 0.102546565 -0.09755504 -0.08748031
000080 9a 9f 53 3d f2 6d 07 be 2a 4e 95 3e e4 64 56 be
       0.05166588 -0.13225535 0.29161197 -0.20936924
000090 42 e3 6b 3e 60 72 2e 3c fe 9d 0a be 10 bf 96 be
       0.2303591 0.010647386 -0.13536832 -0.29442644
0000a0 28 9b 2f be 40 b8 af 3b c0 84 bd 3b 68 e5 36 bd
       -0.17149031 0.0053625405 0.0057836473 -0.044652373
0000b0 7f 6f 89 be 8b c9 b1 bc 43 85 d3 bd 34 ff 98 be
       -0.26842877 -0.021702548 -0.10328152 -0.29882205
0000c0 6b 72 d5 bb 04 57 31 bd 77 6e 88 3e 02 ba ee bd
       -0.006513884 -0.043295875 0.26646778 -0.11656572
0000d0 03 9e 10 be 75 e1 57 3e 41 15 a8 be c2 85 9a 3e
       -0.14122777 0.21082099 -0.32828715 0.30180174
0000e0 64 75 dd 3d 79 96 f3 bc e0 dd dd bd c3 e7 06 be
       0.10813406 -0.029734837 -0.10833335 -0.13174348
0000f0 1f e5 91 bd 38 73 d4 3d d1 e0 60 be 94 fd 20 be
       -0.071237795 0.10373539 -0.2196076 -0.15721732
000100 d9 38 70 bd de f6 67 be 38 3e fd ba f1 41 37 be
       -0.058647964 -0.22652766 -0.0019320911 -0.17896248
000110 b2 bb 5c 3e 66 2c 22 be b9 bf 9a be 96 b7 63 be
       0.21555975 -0.15837249 -0.30224398 -0.22238001
000120 5a 4b c0 3c e0 46 82 be ef 04 ba 3c 5b 47 6e be
       0.02347343 -0.25444698 0.02270743 -0.23269407
000130 16 bf 15 3e 89 e3 6d 3d 9d 37 37 3e 86 99 33 be
       0.14623675 0.058078323 0.17892309 -0.17539033
000140 1d 6a 02 3e f3 12 40 be b5 37 82 be b1 2a 23 3e
       0.12735792 -0.18757229 -0.25433126 0.15934254
000150 36 87 08 3e 1d d0 3c 3e 94 86 4a bc 5d da 9c 3e
       0.13332829 0.18438764 -0.0123611875 0.30635348
000160 75 fd d8 bd 6a 47 32 3d
       -0.10595218 0.043525137

conv.bias f4 [10]
000000 fe 7f 05 be e6 fd 33 be 92 48 6e be bb 97 a9 be
       -0.13037106 -0.17577323 -0.23269871 -0.33123574
000010 3a 38 a0 be 0b 39 98 be 4c cb 1e be 47 fb 2d 3e
       -0.31292897 -0.2973102 -0.15507239 0.16990386
000020 91 28 2e bd 0d 22 df bb
       -0.042519156 -0.006809479

fc.weight f4 [10, 6760]
000000 e0 68 50 bb f0 13 59 bb d4 56 12 bc 56 70 84 3b
       -0.0031800792 -0.0033123456 -0.008931834 0.004041712
000010 98 78 e8 ba 68 63 5f 3b 0a 83 8d 3b 23 38 aa bb
       -0.0017736135 0.003408635 0.0043185996 -0.0051946803
000020 21 a0 17 3c 1f 36 b1 bb a9 da 1e 3c aa ba 23 bc
       0.009254486 -0.005408063 0.009695687 -0.009993235
000030 12 9f 3d bc 57 15 43 3c df 52 0c bc ed 47 1f 3c
       -0.01157357 0.011906943 -0.00856468 0.009721738
000040 c8 63 01 bc c0 df 32 3b b4 c1 de bb c0 69 c9 bb
       -0.007897325 0.002729401 -0.0067979936 -0.0061466396
000050 43 47 1e 3c d0 0b 5a ba 90 ea 10 3a d6 e2 8c bb
       0.009660545 -0.00083178 0.00055281166 -0.004299502
000060 f4 a3 4b bb bd 26 37 3c 41 ea 19 3c 19 11 d3 bb
       -0.0031073065 0.0111786695 0.009394229 -0.006441247
000070 8f 2b 0b bc 8f 34 20 bc 80 95 44 b9 60 55 0b 3b
       -0.008494272 -0.009778156 -0.0001874771 0.0021260604
000080 84 ca 26 bc b2 82 f9 3b 4e de f2 3b 14 e4 11 bc
       -0.010180119 0.007614457 0.0074117547 -0.008904476
000090 c0 00 5c 3b 7e ed d5 bb 66 ed 38 bc f0 9a 85 ba
       0.0033569783 -0.0065285554 -0.011287069 -0.001019327
0000a0 02 c6 90 3b e6 0c 8f 3b 30 ed d7 3a 50 21 8d ba
       0.0044181356 0.0043655513 0.0016473886 -0.0010767374
0000b0 20 40 e4 3a bc 7e 70 3b cc ac 76 3b 6d 63 42 3c
       0.001741413 0.0036696633 0.0037639616 0.011864525
0000c0 14 ac 34 3b 1a 90 89 3b 0e 94 44 bc 5c 8b 09 3b
       0.0027568387 0.0041980864 -0.01199819 0.0020987606
0000d0 90 d0 b0 ba fe 2e c7 3b ad 15 a5 bb 72 c8 e5 bb
       -0.0013489891 0.0060786 -0.0050379843 -0.0070124203
0000e0 5c c5 12 bb b5 04 01 3c e0 a4 07 bb ab 43 18 bc
       -0.0022395467 0.007874657 -0.0020697638 -0.009293477
0000f0 ba 7e b8 3b b1 fc 40 3c 4e 91 83 3b b8 fd bf 3a
       0.0056303414 0.011778996 0.0040151244 0.0014647758
000100 60 a5 e0 3a e4 45 0d bc 3d 20 1c 3c c2 b5 9d 3b
       0.0017139129 -0.00862262 0.009529171 0.004812927
000110 28 89 0a 3b c1 99 08 3c 08 d9 02 3b ab 77 21 bc
       0.002113888 0.008337439 0.0019965786 -0.009855191
000120 5d 4c 45 3c 0d 58 a3 bb 88 ab 41 bb 99 d4 0f 3c
       0.012042132 -0.0049848617 -0.0029551703 0.008778715
000130 32 2d dd 3b 6e c1 f3 3b 25 06 01 3c b2 40 d1 3b
       0.0067497725 0.00743883 0.007875 0.006385886
000140 db ea 2f 3c ab c7 22 3c 49 27 43 3c c0 77 4a 39
       0.010737146 0.0099353 0.011911222 0.00019308832
000150 d4 0f 70 3b ce 5a e1 bb 34 7a 89 bb ca 66 9e 3b
       0.0036630528 -0.00687728 -0.004195476 0.0048340308
000160 62 99 df bb 00 49 55 b8 54 1b d1 bb 1d 29 3c bc
       -0.0068237046 -5.0851144e-05 -0.0063814316 -0.011484412
000170 14 ac ae bb 76 fd 97 3b 56 21 c4 3b 1e bb d0 3b
       -0.005330572 0.004638369 0.0059854193 0.0063699624
000180 d7 4c 2d bc 8f 2b 1f bc 20 86 36 bb 2c 64 44 3b
       -0.010577402 -0.009714975 -0.002785094 0.0029966934
000190 08 1b 22 bb 56 ef ab 3b c0 c4 ee b9 04 3b 29 bb
       -0.002473535 0.005247037 -0.00045541488 -0.002582253
0001a0 49 1d 42 bc 6e 23 08 bc 50 65 92 3a bc 4a 79 3b
       -0.011847802 -0.008309228 0.001116911 0.003803893
0001b0 26 2b c0 3b 5f b9 3c 3c 96 16 8b 3b 16 3b ad 3b
       0.0058645187 0.011518805 0.004244636 0.0052865846
0001c0 28 4f 5a 3b a9 83 45 3c 7e d9 f0 bb e0 aa d7 39
       0.003331134 0.012055316 -0.007350146 0.00041135307
0001d0 e3 a9 1f bc 5c 19 79 3b 6f 20 09 3c 85 e6 35 3c
       -0.009745094 0.00380095 0.008369549 0.011102323
0001e0 79 fb 1f bc 7e 34 44 bc 81 a1 21 bc 3e d8 e8 3b
       -0.009764546 -0.011975406 -0.009865166 0.007105856
0001f0 33 43 2e bc 4c 06 0c 3b 27 ca 18 3c bd d4 42 3c
       -0.010636139 0.0021366058 0.009325541 0.011891541
000200 26 32 01 bc dc 15 07 3b d8 21 8a ba b6 5a 94 bb
       -0.0078854915 0.0020612394 -0.0010538651 -0.004527415
000210 63 b0 40 3c 6c e2 20 3b dc c0 0a bb 0c 6f c7 bb
       0.011760804 0.002454902 -0.0021172082 -0.006086236
000220 2a dd ef 3b c8 34 49 3b ca e1 ef bb a4 43 ef bb
       0.007320066 0.0030701626 -0.0073206173 -0.0073017646
000230 22 78 fb 3b c0 b9 73 bb c7 f5 da bb b0 40 57 3a
       0.007674233 -0.0037189573 -0.006682131 0.00082112383
000240 a6 69 e0 3b 32 d7 a4 bb 68 33 ed ba 22 43 b0 3b
       0.006848532 -0.005030536 -0.0018096985 0.0053790966
000250 cd 40 1b 3c f0 77 fd 3a d5 d2 31 3c 28 38 f1 bb
       0.009475899 0.0019338112 0.010853489 -0.0073614307
000260 8c 34 fe bb b1 4a 3f bc c4 75 08 bc 10 01 2c 3b
       -0.007757729 -0.011675523 -0.008328859 0.002624575
000270 90 ba c6 bb da 61 8c bb b4 5a ed bb 00 24 41 b7
       -0.0060647205 -0.0042841258 -0.0072434787 -1.1512078e-05
000280 40 d6 50 39 5f ba 05 3c 3a 9d cd 3b 0f a1 e0 bb
       0.0001991624 0.00816211 0.0062748464 -0.006855137
000290 f8 02 ea ba 4e 58 27 bc 4c 4b 0a bb 33 d8 24 3c
       -0.0017853668 -0.010213925 -0.002110201 0.010061312
0002a0 f0 f5 5f bb 5c 47 f7 bb c0 26 51 39 9b 4d 01 3c
       -0.003417369 -0.0075463485 0.00019946229 0.007892038
0002b0 dc 85 84 bb cb 61 1f 3c 95 9f 3b 3c 40 96 5b 3b
       -0.0040442776 0.0097279055 0.011451622 0.0033506304
0002c0 93 77 f6 bb 04 08 3e 3b 80 96 59 3a e0 20 4b 3b
       -0.0075215786 0.0028996477 0.00083003193 0.0030994937
0002d0 b3 87 06 3c 81 3a 47 3c 90 f2 0e bc 2e 54 b1 3b
       0.008211064 0.0121599445 -0.008724824 0.0054116463
0002e0 34 8c 7f 3b 24 1f b3 bb a1 f8 45 3c 98 cc 69 bb
       0.003899348 -0.0054663587 0.0120832035 -0.0035674926
0002f0 df 55 06 3c 67 d3 22 3c dd de 0e 3c 6e 24 c2 3b
       0.008199184 0.009938098 0.008720127 0.005924753
000300 43 eb 3f bc 24 71 ac bb d4 40 16 3b 08 ed 66 bb
       -0.011713806 -0.005262511 0.0022926824 -0.0035236496
000310 a8 d1 f9 ba 0b f4 28 3c 87 e5 06 3c 8e b8 37 bc
       -0.0019059675 0.010312091 0.0082334345 -0.011213435
000320 e8 74 15 bc c4 30 2a bb 60 c8 62 3b de ee a1 3b
       -0.009122111 -0.0025969008 0.0034604296 0.0049418053
000330 f4 cb 43 3b e3 04 37 3c 1e 55 ee 3b 82 69 f5 3b
       0.0029876204 0.011170599 0.0072733304 0.007489384
000340 43 f2 b2 bb 0b 51 dd bb 9b 3d 43 3c 10 a0 3f 3a
       -0.0054610088 -0.006754046 0.011916543 0.0007309923
000350 db d1 be bb 18 7d d5 3a f1 a6 12 3c 02 6e cd 3b
       -0.0058233566 0.0016287891 0.008950935 0.0062692175
000360 b0 7f 35 bb 60 c2 e1 3a 6a 89 cc 3b f2 60 fc 3b
       -0.0027694516 0.0017224066 0.006241967 0.0077019865
000370 f0 1b 45 ba 62 32 f5 bb 5a 14 0c bc 80 47 57 ba
       -0.00075191166 -0.0074828127 -0.008549774 -0.00082122535
000380 79 04 29 bc b6 9b 8d 3b 8c 6a 24 bb 48 d3 3b 3b
       -0.010316008 0.0043215407 -0.002508792 0.002865987
000390 a0 6c 11 3b 90 6a 35 ba 90 7f 18 bc c2 2e b2 3b
       0.002218999 -0.0006920481 -0.009307757 0.005437703
0003a0 d4 8f 27 bc 55 e3 04 3c fc 68 b2 bb e6 11 dd 3b
       -0.010227162 0.008110841 -0.005444644 0.0067465184
0003b0 c3 aa 2a 3c 50 af 48 bb d0 dc 6f ba e9 64 28 3c
       0.010416689 -0.0030622073 -0.000915003 0.010277965
0003c0 80 f1 ab b8 60 ac de ba 80 73 57 b9 01 00 13 bc
       -8.198898e-05 -0.0016988628 -0.00020547025 -0.008972169
0003d0 98 05 c8 3a 16 ec a1 3b a0 90 5e bb e0 86 e1 b9
       0.0015260456 0.0049414737 -0.0033960715 -0.00043015834
0003e0 83 f4 38 3c d6 e8 ca 3b 00 d5 23 3b 18 05 90 3a
       0.011288765 0.006192307 0.0024998784 0.0010987846
0003f0 5e 3d 35 bc 3c 8f 72 3b 59 be 2f 3c 78 77 d7 3a
       -0.011061994 0.0037011644 0.010726535 0.0016438803

fc.bias f4 [10]
000000 5c 71 10 bc b2 e0 b2 bb 3a 78 20 3a 88 76 ff bb
       -0.0088160895 -0.0054589147 0.0006121431 -0.0077961124
000010 c9 18 97 bb e0 0a 61 37 fb 95 c3 3a ea ff 89 ba
       -0.004611109 1.3413577e-05 0.0014922017 -0.0010528539
000020 2a f6 8d ba fd 01 4f ba
       -0.0010830809 -0.00078967196
